models/pg/reinforce_insurewise.pt (torch, 10399 bytes, 4 tensors)

model.0.weight f4 [128, 10]
000000 e5 16 2d be 8f e9 94 3c 36 c0 83 bd 3b d1 ef bd
       -0.16903265 0.018177776 -0.06433146 -0.117098294
000010 12 c7 58 3e a3 5c 04 3e ef d1 86 be 13 30 e1 bd
       0.2116969 0.12925963 -0.26332042 -0.109954976
000020 b7 bd 94 be 01 fe 88 be 8d 33 68 3e f4 d3 a4 be
       -0.2905099 -0.2675629 0.22675915 -0.32192957
000030 b6 b8 c5 3e 08 14 ea bc a0 56 79 bd 17 1b 91 3e
       0.38617486 -0.028574005 -0.060873628 0.2834098
000040 fa c9 58 3e fb 11 a3 bd 1a 07 dc bc 33 8f 2e bc
       0.21170798 -0.07962414 -0.026858855 -0.010654259
000050 83 a0 0d 3c 52 08 ab be 4b b9 c3 3d 95 6d c5 3e
       0.008644226 -0.33404785 0.09556826 0.38560167
000060 67 d1 ff 3d 95 2b ce bc 11 a3 70 3e c1 b2 d1 bd
       0.12491112 -0.025167266 0.23499705 -0.10239173
000070 b1 5a 20 3c 9a 5e f8 bd af f2 20 be 9f 04 18 be
       0.0097872475 -0.12127419 -0.15717576 -0.14845513
000080 a4 5e 9b 3c 68 df 0c bc c8 3d 59 bd 06 55 86 3e
       0.018966027 -0.008598186 -0.053037435 0.26236743
000090 79 ad 77 3d 84 64 65 3e 43 19 23 be a8 56 9e 3e
       0.06046817 0.22401625 -0.15927605 0.30925488
0000a0 0e 3a a2 be 2b 20 73 3e 41 55 2a be f7 d4 d3 3e
       -0.31684917 0.2374274 -0.16634084 0.41373417
0000b0 62 ba 8f 3d b6 b8 81 be c6 76 a2 3d 89 34 71 3e
       0.070179716 -0.25336236 0.079328105 0.23555197
0000c0 35 ef 93 3e 68 20 9c 3d fc 69 20 be 8d 79 69 3e
       0.28893438 0.076233685 -0.1566543 0.22800274
0000d0 ac b9 fa bd 6f 38 80 3c 59 58 f6 3d 65 2b 1b 3b
       -0.12242445 0.01565191 0.1202857 0.0023676988
0000e0 a6 10 4c be de 87 59 be 9d a4 1d be 4b 9b 24 3d
       -0.19928226 -0.21243235 -0.15394826 0.04018716
0000f0 ba 6d 26 3e 6b 3a 8b bd 92 6c e3 3e b3 15 a2 bd
       0.16252795 -0.06798252 0.4441877 -0.07914295
000100 3f b6 4e 3e 2b 64 86 3e ef 42 a5 bc 12 af c0 3d
       0.20186709 0.26248297 -0.020173518 0.09408392
000110 31 a5 2b 3e 47 6a a1 bd 5d 89 07 3f a7 bd b2 3e
       0.16762234 -0.07881599 0.52943975 0.34910318
000120 1f 7e 87 be 73 cb b7 be 61 72 02 be 6a 43 7f 3e
       -0.2646341 -0.35897407 -0.12738945 0.2492806
000130 72 2f 85 ba 5b 1c fc 3d e7 56 4a 3e a1 ef 86 3e
       -0.0010161235 0.12310096 0.19759713 0.26354697
000140 33 b3 a1 be 8f f3 10 3e 8f 9a 06 bd 8f 17 64 be
       -0.3158203 0.1415541 -0.032862242 -0.22274612
000150 be a8 8b 3e 0a 97 48 bd 54 04 1b bd 8f 9e 23 3d
       0.27277178 -0.048972167 -0.037845924 0.039946135
000160 1c 68 25 be 4a a3 e2 3d d0 6f 96 be f3 e7 55 3d
       -0.16152996 0.11066301 -0.2938218 0.052223157
000170 d1 04 d0 3e 3c 8b 59 3e b7 54 87 bd 27 a3 96 bd
       0.40628675 0.2124452 -0.06607955 -0.073553376
000180 9c be cd ba e5 e6 23 bd cb 64 91 3c 01 c8 81 bc
       -0.0015697065 -0.04001512 0.017748257 -0.01584244
000190 7e ee df 3d db 62 93 bd ee df 1e 3e bf 5e 83 be
       0.10934161 -0.071965896 0.1551511 -0.25658223
0001a0 da 41 5f 3e cc 82 48 3c a8 3f 77 be f3 9e 82 3e
       0.21802464 0.012238216 -0.24145377 0.25511894
0001b0 e7 c3 28 be e9 a0 32 be 9f f9 56 be 80 ef 12 bd
       -0.16480981 -0.17444195 -0.2099366 -0.035872936
0001c0 ec 25 13 be 50 7d 1f 3e 00 1b d7 3d 71 b4 7a be
       -0.14369935 0.15575147 0.10503197 -0.24482895
0001d0 70 12 92 bc ee 80 ac bd 50 63 af 3c e6 4b 95 bd
       -0.017831057 -0.08423029 0.02140966 -0.07289867
0001e0 75 30 29 3e 9f 32 04 bb 57 f2 e1 3e 84 11 1a be
       0.16522391 -0.0020171774 0.44130203 -0.15045744
0001f0 e8 73 81 3d d6 c6 9c 3d f6 e8 2c 3d 1d 14 6f bd
       0.063209355 0.076551124 0.042214356 -0.05836879
000200 3e 50 66 3d 97 89 4e 3d a2 ce 87 3e 17 c8 e2 3e
       0.05622887 0.050424185 0.26524836 0.4429328
000210 ac c1 c1 be 23 0f 8f be 72 5e 91 bd bf 94 c6 3d
       -0.37843072 -0.27941236 -0.07098092 0.0969634
000220 50 e6 cc 3e 29 f2 01 be 5b 51 a3 3e 45 24 ab bd
       0.40019464 -0.12690033 0.31898007 -0.08356527
000230 25 69 22 3e 02 58 73 be fe d6 c0 3e 64 b9 e8 3d
       0.15860422 -0.23764041 0.37664026 0.113634855
000240 9a 23 f3 bb 4c 30 59 3e 3b 54 1f bd d1 63 87 3e
       -0.0074200155 0.2120983 -0.038898688 0.2644334
000250 ad b0 c0 bc be 36 47 3e 20 8c 97 be 42 ce ae bd
       -0.023521746 0.19454476 -0.29599094 -0.08535434
000260 7e ce 59 3e 8d ff 9b be 04 03 2e be 7c d5 16 be
       0.21270177 -0.30468407 -0.16993338 -0.14729875
000270 de 00 f7 bd 40 a9 4c be a9 a2 9e be ab 2d 4d be
       -0.12060712 -0.19986439 -0.30983475 -0.20036952
000280 e5 44 68 3e c3 6d 52 3e 23 ed 0b be 41 18 a1 3e
       0.22682531 0.20549683 -0.13664679 0.31463817
000290 68 63 4e 3e ca 0d 20 3c 19 f9 a0 3e d9 20 05 3e
       0.20155108 0.009768913 0.31440046 0.13000812
0002a0 99 0c a1 3d 27 41 71 3e aa 9e 40 be a4 1f af bd
       0.07863731 0.2356001 -0.18810526 -0.08550957
0002b0 e7 fc 6b 3e b1 8b 08 3e bd 79 26 bd fd e0 cb 3c
       0.23045693 0.13334538 -0.040643442 0.024887556
0002c0 21 36 3d be 09 fd 9d 3e f3 15 9e 3e f4 5d 87 3d
       -0.1847768 0.30857113 0.3087612 0.06609717
0002d0 71 d8 db bd 08 97 75 3e b8 a6 73 3e 21 4e 3c 3e
       -0.10734642 0.23983395 0.23794067 0.18389179
0002e0 4d f1 f0 3c bd 69 84 3e c7 e1 44 be 5c b1 2b be
       0.029411936 0.25861922 -0.19226752 -0.16766876
0002f0 f2 0e ae 3d 32 b4 a0 3e 01 e6 f5 3c 59 c1 59 be
       0.08498944 0.31387478 0.030016901 -0.21265163
000300 77 0b 99 be d1 70 5c 3e f7 aa 93 3e 28 d2 3c 3e
       -0.2989156 0.21527411 0.28841373 0.18439543
000310 e0 7a c8 3d 65 41 62 3e 31 93 62 3e e8 a6 16 be
       0.097890615 0.22095259 0.22126462 -0.14712107
000320 38 80 16 bd b6 dc 71 3e 68 7f cb 3e 08 5b fe 3e
       -0.036743373 0.23619351 0.3974564 0.49678826
000330 01 b7 79 3e f3 0e 44 3e ce bc 3e 3e 83 e6 35 3d
       0.24386217 0.19146328 0.18626711 0.044409286
000340 a9 c9 4a be d8 c7 26 be 96 28 1e be fa c4 39 3e
       -0.1980349 -0.16287172 -0.1544517 0.18141547
000350 b4 eb 97 bd d4 a4 93 3e 80 70 87 3e cc 62 91 be
       -0.07418004 0.2883669 0.26453018 -0.2839569
000360 84 cd 3a bd 5d e0 4b be b5 b5 91 3e 36 11 42 be
       -0.04560615 -0.19909807 0.28458944 -0.18951878
000370 8b e8 8b 3e ba 77 28 be 72 b3 a6 3e 64 10 83 3d
       0.27325854 -0.16451922 0.3255878 0.06399611
000380 0c b6 90 be 36 58 a4 3e 68 3e 8e 3e 70 ad e1 bd
       -0.2826389 0.3209855 0.27781987 -0.11019409
000390 f0 72 68 bd 6b f1 9a bd 8f db f5 bd 00 68 4b be
       -0.056750238 -0.07565578 -0.12004768 -0.19863892
0003a0 e4 e7 39 3e f2 b4 8f bd d5 98 9a be 2f aa 9f bd
       0.18154866 -0.070169345 -0.30194727 -0.07796132
0003b0 d4 20 84 be a2 d8 82 be 03 53 28 be 0c e7 00 3e
       -0.25806296 -0.25555903 -0.16437916 0.12588137
0003c0 9a 24 a5 bb 65 e0 02 be 3c 4c 88 be f1 02 22 be
       -0.0050397636 -0.12780912 -0.26620662 -0.15821435
0003d0 64 c7 92 be 9a 84 82 3e 6e 89 7b 3e 90 73 74 3e
       -0.28667748 0.25491792 0.24564144 0.23872209
0003e0 c8 61 7f bd b6 fd fe 3d b0 fb 93 be 39 4e 70 3d
       -0.06234911 0.12450735 -0.2890296 0.05866835
0003f0 e2 df ab 3e cd 77 93 3e f0 c5 a3 3e 26 7b aa 3c
       0.33569247 0.28802338 0.31986952 0.020810675

model.0.bias f4 [128]
000000 74 70 23 3e 7c 5f b0 bd d0 4e 0d 3e ca 4c a6 be
       0.15960866 -0.08611962 0.13799596 -0.3248046
000010 be d2 11 be fc 85 16 be 9a b8 89 be b6 7b 69 3d
       -0.14240548 -0.14699548 -0.26898652 0.057002746
000020 d5 6b 6b bd 32 72 8d 3e 44 1b ac bd 77 aa 9b be
       -0.057475884 0.27626187 -0.08403638 -0.30403492
000030 99 64 85 be b2 67 21 bd 62 c3 4c be ba 37 e3 bd
       -0.26053312 -0.039405532 -0.19996408 -0.110946134
000040 a0 fc 24 3e 31 98 b4 3e c4 6c 96 3e f8 45 95 3d
       0.16111994 0.35272363 0.29379857 0.07288736
000050 81 4e 5c 3e 00 3b 86 3e 3c 60 13 be f1 71 58 bd
       0.21514322 0.26216888 -0.14392179 -0.052843038
000060 6b 45 35 3e f2 d7 fd 3d 81 b3 87 3e 08 a2 29 3e
       0.17702262 0.12394704 0.26504138 0.16565716
000070 76 f1 5a be dd d4 d8 3c 8d 10 33 3d 68 78 16 3c
       -0.21381173 0.026468689 0.043716956 0.0091839805
000080 8b 92 54 3e 69 55 71 bd 28 5b ad 3e bb 38 91 3e
       0.20759027 -0.058919344 0.3385861 0.28363594
000090 12 d1 8d bc 69 a7 9a 3e a1 f2 11 bd 90 a0 52 3e
       -0.017311607 0.3020585 -0.03563178 0.20569062
0000a0 10 bf 91 3e 81 be c7 3d 5b 62 93 bd ae 6a 46 3e
       0.28466082 0.097531326 -0.07196494 0.19376633
0000b0 56 a2 89 be cc 80 4d be 18 94 3e bd d1 61 d7 3d
       -0.26881665 -0.20068663 -0.046527952 0.10516704
0000c0 08 ba c2 3e a9 cf 26 3e d7 2d 9d 3e f6 75 bc 3b
       0.38032556 0.16290154 0.30699036 0.0057513667
0000d0 3e 52 90 3d b2 58 14 3e 61 ac 9b 3d d9 9f 1b be
       0.070469365 0.1448696 0.07601238 -0.15197696
0000e0 00 e3 bb 3d 88 52 db 3e 38 8c d5 3e 5e 6d 13 be
       0.09174156 0.42836404 0.4170854 -0.14397189
0000f0 17 6e 27 bd 12 a7 83 be 21 63 6a 3e e3 98 ae 3d
       -0.040876474 -0.25713402 0.22889377 0.085252546
000100 92 9f 47 3e 27 48 c9 3e 32 e7 37 be fd a3 21 3d
       0.19494465 0.3931286 -0.17959288 0.039463032
000110 18 7b 3f 3b 9d 0c 6f 3e 01 6a 6a be 6f 6d 03 3e
       0.0029217657 0.23344655 -0.22892 0.12834714
000120 f9 dd bd 3e 2c cd a3 3d 2d d6 40 3c 2b 24 ee 3d
       0.37083414 0.07998118 0.0117698135 0.11627992
000130 a2 eb 7a 39 37 8c 2c be 8e 75 8d be 17 35 a6 3e
       0.00023929638 -0.16850363 -0.2762875 0.3246238
000140 ab ee 8a be af 2d 72 3e 07 97 15 3e 28 65 8f 3e
       -0.27135214 0.2365024 0.14608394 0.28006864
000150 2b 21 16 3e 6e 6b b3 3e 57 40 8d 3e bd 2b ee 3d
       0.1466109 0.350429 0.2758815 0.11629436
000160 e7 63 60 be 83 32 d9 3d ca 0d cd bd 22 7d e3 3d
       -0.2191311 0.106053375 -0.10012396 0.111078516
000170 ea 90 9a bb 03 d1 10 be e8 85 5b be 7d 93 f8 3d
       -0.004716982 -0.14142232 -0.214378 0.12137506
000180 04 15 4d be 1f 60 ec 3d 51 a7 8f 3e 81 5c 42 3d
       -0.20027548 0.11541771 0.2805734 0.0474515
000190 f0 44 40 3e c3 80 dd 3d 58 27 41 bc 0d 7f 1b 3e
       0.18776298 0.10815575 -0.011789165 0.15185185
0001a0 46 66 5a bd a3 97 79 3e bc 56 6b 3e 28 d7 48 3e
       -0.05332019 0.24374251 0.22982305 0.19613326
0001b0 80 e1 24 3e 40 82 4a 3e e5 9c f3 3d b2 81 07 3d
       0.16101646 0.19776249 0.1189516 0.03308267
0001c0 f7 ce 66 be 69 f7 82 be 1a 4d f4 bc d7 43 9b bd
       -0.22539888 -0.25579384 -0.029821921 -0.07581299
0001d0 b2 c9 47 bd fa 01 0c 3e 39 4b c8 3d 14 2f 17 bb
       -0.048776336 0.13672629 0.097799726 -0.0023068832
0001e0 5b 89 0c bd 1d 32 01 3e da 2e a8 bd d6 9b b3 3c
       -0.03431068 0.12616773 -0.08212061 0.021924894
0001f0 0a c1 78 3e 30 21 92 be 3f ca a6 3d 6d bd b6 3e
       0.24292389 -0.28540945 0.08144044 0.35691395

model.2.weight f4 [4, 128]
000000 92 c9 a3 3d d5 a0 61 3d 37 5f 30 be 86 a8 b5 bd
       0.07997431 0.055085022 -0.17223822 -0.08870034
000010 43 e5 7b be 87 15 9a bb e5 3c 71 3c b0 70 51 3e
       -0.24599175 -0.0047022733 0.014723991 0.20453143
000020 f8 54 aa bc ff 33 8e be bf 85 a2 bc 60 49 68 bb
       -0.02079247 -0.27774045 -0.019839166 -0.0035444126
000030 b9 34 27 be ef dc 21 3e 49 ec 16 bd c2 5d 6e 3d
       -0.16328706 0.15806936 -0.036846433 0.058194883
000040 32 a8 91 3d f5 69 9d bd a7 5f 7e 3c e1 63 47 3c
       0.07112159 -0.07686225 0.015525735 0.012169809
000050 32 d4 ea bd 59 de b9 bd 40 0d b4 3d 84 04 db bd
       -0.11466254 -0.090756126 0.0879159 -0.10694221
000060 bc a8 6c 3d e7 29 d1 bd af a8 75 bc 17 b4 24 3e
       0.057778105 -0.1021307 -0.014993831 0.16084324
000070 cc e4 19 3e 59 58 0f be eb a6 38 be eb c5 10 bd
       0.15028685 -0.13998546 -0.18032424 -0.035345
000080 ea 62 ce 3d 8c 45 e9 3d 3d 6d 8a 3d 58 16 55 be
       0.1007746 0.11390218 0.06759117 -0.20809305
000090 ba ee c6 3d 7c 21 62 bd f7 89 b2 bd a7 de 0d 3e
       0.09713502 -0.055207714 -0.08717721 0.13854466
0000a0 e0 75 3c be 85 30 ac bd dd e1 a0 3d 2a c6 3e 3e
       -0.1840434 -0.08407692 0.0785558 0.18630281
0000b0 fd 38 36 3c 1c 1a 44 be b0 58 92 bd 90 b6 68 be
       0.0111219855 -0.19150585 -0.07145822 -0.22725892
0000c0 2e fb 10 3e 6a 04 e1 bd 1f 1e 47 be 63 33 67 bd
       0.14158317 -0.1098717 -0.19445084 -0.05644549
0000d0 74 86 3f 3d ab ab 12 be ca ae ba bd e1 c0 a4 3d
       0.046759084 -0.14323299 -0.091153696 0.08044601
0000e0 b8 49 8e 3c be 08 90 be a3 77 8a 3d 4f be ba bd
       0.017369136 -0.2813167 0.067611 -0.0911833
0000f0 2e fa b8 3d 95 b5 ec 3d d1 d1 b3 3d 9f da 26 3e
       0.09032093 0.115580715 0.08780254 0.16294335
000100 63 ea 1a be d2 2e 84 3c ba ce 93 3d 8f 69 4f 3d
       -0.15128474 0.016135607 0.07217164 0.050637778
000110 47 b8 47 3e 58 c1 21 be 6e 9e 84 bd 3a 22 61 bd
       0.1950389 -0.15796411 -0.064755306 -0.05496428
000120 de 50 47 3e da e5 69 3e 07 40 88 be e0 a0 5a 3e
       0.19464442 0.22841588 -0.2661135 0.21350431
000130 c6 14 4d 3c a2 0b 02 bd 2d e7 66 bd 40 3d 77 3e
       0.01251716 -0.031749375 -0.05637281 0.24144459
000140 a0 d4 0c bd 8d 9b 20 3e a8 f4 14 3d b3 b0 06 be
       -0.034382463 0.15684338 0.036366135 -0.13153343
000150 b4 63 a9 bc 49 3f 73 3e c1 a5 51 be 33 37 c5 bd
       -0.020677425 0.2375461 -0.20473386 -0.09629669
000160 70 70 15 3e 46 d5 37 bd 9f 07 c1 bd c3 ec 2f be
       0.14593673 -0.044881128 -0.09425282 -0.17180161
000170 16 26 e6 bc 33 c6 d7 bd 61 dd 20 bd 8b 6d f8 bd
       -0.028094333 -0.105358504 -0.039273623 -0.12130269
000180 a7 38 94 3d f2 5b ab 3c 1b ce f9 bd a2 eb 76 bc
       0.07237368 0.020917866 -0.121975146 -0.015070828
000190 51 07 3c 3e 2d b7 4c bd 19 22 f2 bd cf 5d ac 3c
       0.18362166 -0.049979378 -0.1182291 0.021040825
0001a0 7a 65 5d 3d 4b 86 eb bd ab 59 78 bd 5b a3 3e be
       0.054051854 -0.11500224 -0.06063239 -0.18617003
0001b0 9c 59 d9 3d 35 c1 9b bb 32 09 0d bc 64 b2 2d 3d
       0.10612795 -0.0047532567 -0.008608149 0.042406455
0001c0 d8 b6 9c 3d 12 08 89 bc e7 38 50 3d 1b c9 14 be
       0.07652062 -0.016727481 0.050835516 -0.1452984
0001d0 2b 1f a1 bd 38 09 3c be 03 bf 41 3b 6e 1f 0a be
       -0.07867273 -0.18362892 0.0029563315 -0.13488552
0001e0 cd 49 8b 3c 73 1e 24 be 1e a5 5e 3c c7 8b 50 be
       0.017002964 -0.1602724 0.013589172 -0.20365821
0001f0 72 b1 70 bd 5c 17 7b 3d f7 93 1e 3e d4 62 3a 3d
       -0.058762975 0.061301574 0.15486132 0.045504406
000200 9d 32 69 3b eb cb 06 be a2 7c f8 bc ee ad 14 3d
       0.0035583146 -0.13163726 -0.030332867 0.036298685
000210 fa 3a 11 be eb 19 24 bc c5 b2 06 3d 5d d1 1d bd
       -0.14182654 -0.010015945 0.03288533 -0.038529743
000220 09 bf 3a bd 79 6e 27 bd 38 10 71 3d f8 68 bf bc
       -0.04559234 -0.04087684 0.058853358 -0.023365483
000230 9f 60 2c bc 95 6d c6 bc 9b 46 d6 bd e8 b6 95 3c
       -0.010521083 -0.024222175 -0.10462686 0.018275693
000240 3d 2f 12 be 71 76 a3 bd 1b 64 04 be d9 f1 73 bd
       -0.14275832 -0.07981575 -0.12928812 -0.059556816
000250 aa f4 1c be e2 de 90 bd 50 a1 79 bd 03 5e 9f bc
       -0.15327707 -0.070737615 -0.060944855 -0.019454008
000260 86 68 c8 bd a7 22 9c bd b5 37 71 3b d7 66 3c bd
       -0.09785561 -0.07623797 0.0036806886 -0.045996513
000270 8f 60 05 be 35 1b 2a be d6 40 d1 bc af 75 98 3d
       -0.13025115 -0.16611941 -0.025543611 0.07444321
000280 47 9b ad bc d3 81 45 bd 7a 4b e6 bc fc a8 f7 bb
       -0.021192206 -0.048219513 -0.028112162 -0.0075579863
000290 76 b0 fb bd 52 0c b0 bd 34 f8 c1 bc 7a 95 de bd
       -0.12289517 -0.085961 -0.023677923 -0.10868354
0002a0 25 54 b7 bd 7a b9 10 be d2 61 23 be 67 0a 4f 3c
       -0.08951596 -0.14133254 -0.15955284 0.012636757
0002b0 39 b8 6b 3d e1 ca d8 bd 25 97 3a 3d 80 92 cc bd
       0.057548735 -0.10585571 0.0455543 -0.0998888
0002c0 65 df ed bd 62 12 8a 3c 62 ad 6a bc 33 ba c6 bc
       -0.11614875 0.016854469 -0.014323564 -0.024258709
0002d0 db 0a 54 3d 7d 99 db 3b b5 af 09 bd 90 0a c3 bc
       0.051768165 0.006701647 -0.033614833 -0.023808748
0002e0 22 61 3e 3d 81 03 03 be a1 bb 83 bd 9b 96 7f bd
       0.04647935 -0.12794305 -0.06432272 -0.062399488
0002f0 fa 3e 56 bd 39 bb 45 3c 04 97 8b 3d b5 60 f9 bd
       -0.052306153 0.012068563 0.06815913 -0.121766485
000300 3b b3 cb bd 3b b8 d6 bd b1 81 8e bc 51 43 b8 bc
       -0.09946295 -0.10484358 -0.017395826 -0.022493036
000310 fd b7 49 bd 4d 98 c4 bd 85 13 46 bd f1 f3 fc bd
       -0.04924773 -0.095993616 -0.04835846 -0.12351216
000320 24 b9 a1 bd 7e f9 1a bc 3b 8f 09 be a9 47 48 bc
       -0.07896641 -0.009458898 -0.13433544 -0.012224116
000330 cd 64 d9 bc bf ac 28 bd d3 29 3a bd 95 12 db bd
       -0.026537323 -0.04118037 -0.045450043 -0.106969036
000340 1b 50 f7 3c 0e 53 05 3d ac e3 d3 3a 95 5e a5 bd
       0.030189564 0.03254991 0.0016165874 -0.08074681
000350 45 71 75 bd a1 9e 25 bd b8 8c d9 bd 6b c4 a3 3b
       -0.059922475 -0.040434483 -0.10622543 0.00499778
000360 0a 4e ab bd 62 ca 98 bc 06 4b 45 bc 48 07 9d bd
       -0.08364494 -0.018651191 -0.012041813 -0.076674044
000370 f3 cc cd bc 14 fc 85 3d 53 da 57 3c db eb 0f be
       -0.025122141 0.06542221 0.013174611 -0.14054815
000380 20 e8 c3 bc 0c 56 a7 bd d5 39 53 bc db bc 04 be
       -0.023914397 -0.08170709 -0.012892206 -0.12962668
000390 5b df 29 3d a2 ec 09 be 67 74 83 3d 33 1e 84 bd
       0.041472774 -0.13469175 0.06418686 -0.064510725
0003a0 4c fc e6 bc dd c7 ac bd dd 5e 1d bd a1 6a 1b be
       -0.028196476 -0.084365584 -0.038420547 -0.15177394
0003b0 74 bf 45 bd d2 d2 16 bd 14 eb 9d 3d e4 e5 d1 bd
       -0.048278287 -0.036822148 0.07710853 -0.10248926
0003c0 e6 a4 65 3d 63 ec 3b 3d f3 ae e4 bd a8 c4 8e 3c
       0.056065463 0.045879733 -0.111661814 0.017427757
0003d0 99 e6 48 bd ff a2 19 bd 4d 79 0a be f2 de 03 be
       -0.04904804 -0.03750896 -0.13522835 -0.12878016
0003e0 9a e6 00 bd 77 49 48 bc e3 36 12 bd 28 06 44 bb
       -0.03146992 -0.012224547 -0.035696875 -0.0029910896
0003f0 0b ec 81 bc 59 a4 1a bd d1 03 15 be ed 81 e1 bd
       -0.015859624 -0.03775439 -0.14552237 -0.110111095

model.2.bias f4 [4]
000000 73 4d c7 3d e8 c5 15 be 66 c6 af 3d c5 35 8c bd
       0.09731569 -0.14626276 0.085827634 -0.06846193
